aistudio/hw4/model/resnet18_adam.pkl (torch, 841937 bytes, 77 tensors)

weight f4 [16, 3, 3, 3]
0	0xbc0a5096	-0.008442065
1	0xbdf403a5	-0.11914758
2	0xbcf0f372	-0.029412959
3	0x3dac0574	0.083994776
4	0x3c4bc173	0.012436259
5	0xbe31008a	-0.17285362
6	0x3dac97c9	0.08427388
7	0x3dcf8968	0.1013363
8	0xbda5f6ed	-0.08103738
9	0x3e100353	0.14063768
10	0x3e19d293	0.15021734
11	0x3e2d5db4	0.16930276
12	0xbd82ac42	-0.06380512
13	0xbe3b1d9a	-0.18273011
14	0x3e1e6a90	0.15470338
15	0xbdef57bd	-0.116866566
16	0x3d91c0b8	0.07116836
17	0xbe3187b6	-0.17336926
18	0xbc8550ad	-0.01627382
19	0xbd929f0b	-0.07159241
20	0x3de12dd4	0.10995069
21	0xbd89305e	-0.066986784
22	0x3dca53f8	0.09879297
23	0xbe031b91	-0.12803484
24	0x3b52564c	0.0032094894
25	0xbdc6b144	-0.097017795
26	0x3e1464d7	0.14491592
27	0xbe2dd17c	-0.16974443
28	0x3e409d8c	0.188101
29	0xbe2336e5	-0.1593891
30	0x3df66e5d	0.12032769
31	0xbd75a4c4	-0.059971586
32	0xbd7a9cd1	-0.061184708
33	0xbdcef8e0	-0.10106063
34	0xbe4b618c	-0.1986143
35	0x3e158764	0.14602429
36	0x3e2cb88a	0.16867271
37	0xbd26f79d	-0.040763486
38	0xbc23356d	-0.009961468
39	0xbdfa2df4	-0.12215796
40	0xbe196915	-0.14981492
41	0x3d793b13	0.060847353
42	0x3e1372bd	0.14399238
43	0x3dc4fe54	0.09618822
44	0xbc62ddd6	-0.013846835
45	0xbe1146fd	-0.14187236
46	0x3d9ed3e5	0.077552594
47	0xbe04047d	-0.12892337
48	0xbd35e89d	-0.04441129
49	0x3c3a0365	0.011353348
50	0x3e013fd3	0.12622003
51	0xbda1afd9	-0.078948684
52	0x3e35af81	0.1774273
53	0xbcf0ab0c	-0.029378437
54	0x3d2b1347	0.04176643
55	0x3c43214a	0.011909792
56	0x3de58a72	0.11208047
57	0xbc76d7f0	-0.015066132
58	0x3d05298d	0.03251033
59	0xbe2c104b	-0.1680309
60	0x3d8f6129	0.07000954
61	0x3e0cb3d0	0.13740468
62	0xbdf1fa0f	-0.11815273
63	0x3df1b159	0.118014045
64	0xbcbbce34	-0.022925474
65	0x3e4c2683	0.19936566
66	0x3dbcd4b6	0.09220259
67	0x3e1855a5	0.14876421
68	0x3e40de88	0.18834889
69	0xbe02874a	-0.12746921
70	0xbcba27f0	-0.022724122
71	0x3dc595fa	0.096477464
72	0x3df678e3	0.12034776
73	0x3dbd4e27	0.09243422
74	0x3d9d176f	0.07670485
75	0x3d4f703d	0.05064415
76	0xbe138a63	-0.14408259
77	0xbd365b89	-0.04452089
78	0x3d9fc31c	0.07800886
79	0x3e1417ed	0.14462252
80	0x3e038446	0.12843427
81	0x3e134cf4	0.14384824
82	0xbe0b772a	-0.13619676
83	0x3e464344	0.19361597
84	0xbdb9ba2c	-0.090687126
85	0x3ce158bc	0.027508132
86	0x3d902b4e	0.0703951
87	0x3cf7dfe8	0.030258134
88	0xbe394d70	-0.18095946
89	0xbe157f9d	-0.14599462
90	0xbe2daacd	-0.16959687
91	0xbc922fdf	-0.017845092
92	0xbdc3d66b	-0.09562381
93	0x3e3f7100	0.1869545
94	0xbdae8e61	-0.0852325
95	0x3d49dd66	0.049283408
96	0x3debf337	0.11520999
97	0x3dcdfaf1	0.10057629
98	0x3d7c4bda	0.061595775
99	0xbdbaf297	-0.091283016
100	0x3db7b3ff	0.089698784
101	0x3e49196e	0.19638607
102	0x3c22647e	0.0099116545
103	0xbe2f766b	-0.17135017
104	0xbe08c798	-0.13357389
105	0xbdea74f6	-0.1144809
106	0x3d078637	0.03308698
107	0x3d630a9e	0.055430047
108	0xbcb0b98a	-0.021572847
109	0xbe2d5edf	-0.16930722
110	0xbda023cf	-0.0781933
111	0x3d704615	0.058660585
112	0x3da07d5b	0.0783641
113	0xbdc470b7	-0.09591811
114	0xbe161af0	-0.14658713
115	0x3c5501c0	0.0130009055
116	0x3c902e5d	0.017600233
117	0xbe39944c	-0.18122977
118	0x3d94879d	0.07252429
119	0xbe178d36	-0.14799961
120	0xbd5cf78b	-0.053947013
121	0x3cdb0a3a	0.026738275
122	0x3da1c5ca	0.078990534
123	0xbe13bdad	-0.14427824
124	0xbdc56708	-0.09638792
125	0x3dff369e	0.12461589
126	0xbd6c241d	-0.057651628
127	0x3e3f120a	0.18659225
128	0xbdf886f5	-0.12135116
129	0x3c8e3121	0.01735741
130	0x3defe251	0.11713088
131	0x3d8f3880	0.069931984
132	0xbdea69f5	-0.11445991
133	0x3d39400d	0.0452271
134	0xbddb4a09	-0.107074805
135	0x3bcabf8d	0.0061873854
136	0xbd3e489f	-0.046455976
137	0xbd900629	-0.07032425
138	0x3e2ba179	0.16760816
139	0xbdcf15f6	-0.101116106
140	0x3c6fe503	0.014642003
141	0x3cdf3d7d	0.027251
142	0x3d726c22	0.059185155
143	0xbdd0f939	-0.102037854
144	0xbd8ae2e2	-0.06781556
145	0xbe35ae2a	-0.1774222
146	0xbba040c0	-0.0048905313
147	0xbdb93ab6	-0.09044401
148	0xbdc3605a	-0.09539862
149	0xbded645d	-0.115914084
150	0xbdafd8f1	-0.085863
151	0xbe5e12b4	-0.21686822
152	0xbd3700bf	-0.044678446
153	0xbe0539a8	-0.13010275
154	0xbdee7460	-0.116432905
155	0x3d8afa5c	0.067860335
156	0xbd591be4	-0.053005114
157	0x39dd0c1f	0.00042161436
158	0x3ba676d8	0.0050800852
159	0xbe22a094	-0.15881568
160	0xbd147533	-0.036244582
161	0x3e4213f3	0.18952923
162	0x3e46787c	0.19381899
163	0xbcab22e4	-0.02089066
164	0x3e711850	0.2354443
165	0xbc8d26ea	-0.01723047
166	0x3cd02bd6	0.025411528
167	0xbc3593c9	-0.011082598
168	0x3da2374e	0.07920705
169	0xbcb6b0d0	-0.022301108
170	0x3e290403	0.16505437
171	0xbdc489da	-0.095966056
172	0xbd02b94f	-0.031915005
173	0x3df79006	0.12088017
174	0xbe1f4890	-0.15555024
175	0x3da995a9	0.082804985
176	0x3c1db203	0.009624961
177	0x3dc7794f	0.09739935
178	0x3e062dd4	0.1310342
179	0x3d870951	0.06593574
180	0xbcaf2ace	-0.021382716
181	0xbd96470a	-0.073377684
182	0xb9f65a69	-0.00046988137
183	0x3e2c9465	0.16853483
184	0xbe1e6751	-0.154691
185	0xbe076c89	-0.13224997
186	0xbb60f57f	-0.0034326015
187	0x3ddb42d8	0.10706109
188	0x3d156254	0.036470726
189	0x3e2d0435	0.16896136
190	0x3e155502	0.14583209
191	0x3dacf41c	0.08444998
192	0xbdd39756	-0.103315994
193	0xbbf930bb	-0.007604686
194	0x3ddc4a76	0.1075639
195	0xbdd7e863	-0.10542371
196	0x3ca6def8	0.020369992
197	0xbdb9a815	-0.09065262
198	0x3df37ced	0.11889062
199	0xbd8b2b81	-0.06795407
200	0x3e1330e6	0.14374122
201	0x3de2eb20	0.11080003
202	0xbd103c9a	-0.035214044
203	0xbd8b6919	-0.06807155
204	0x3dff4109	0.12463576
205	0x3c298308	0.010346182
206	0xbddaae9a	-0.10677834
207	0xbe345342	-0.17609885
208	0x3d5ad9bd	0.053430308
209	0x3cee0ffa	0.029060353
210	0xbcb70a79	-0.022343861
211	0x3e22ae8b	0.15886895
212	0x3db888cd	0.09010468
213	0xbe02b7ef	-0.12765478
214	0x3e221204	0.15827185
215	0x3dd0d662	0.1019714
216	0xbdc711c4	-0.097201854
217	0x3d7de273	0.061983537
218	0xbe1b357a	-0.15157118
219	0xbdeba88e	-0.11506759
220	0x3db0d580	0.08634472
221	0x3d3b0e38	0.045667857
222	0xbe15007d	-0.14550968
223	0xbdc51ceb	-0.09624656
224	0x3e2c8fdf	0.16851757
225	0xbde3c7be	-0.11122082
226	0x3d246d34	0.040143207
227	0x3c987352	0.018609677
228	0xbdb87c1b	-0.09008046
229	0xbd164f8a	-0.036696948
230	0xbe0080da	-0.12549153
231	0x3e40a283	0.18811993
232	0xbbfd9fdc	-0.007740004
233	0xbdf17185	-0.1178923
234	0x3dee8c79	0.11647887
235	0x3e0758ea	0.13217512
236	0xbe0a78be	-0.13522622
237	0xbe12360e	-0.14278433
238	0x3e48affc	0.19598383
239	0x3c9e0a7e	0.019292112
240	0x3d606b44	0.054789796
241	0xbdabb962	-0.08384968
242	0xbc59feae	-0.013305349
243	0x3c654c2a	0.01399521
244	0xbe1a6a82	-0.15079692
245	0x3dfb38b8	0.122666776
246	0xbe45c5be	-0.19313714
247	0x3dab3eed	0.083616115
248	0x3dc9496c	0.09828457
249	0xbe258dbf	-0.16167353
250	0x3db0202b	0.085998856
251	0x3e270b8c	0.16312999
252	0xbe2c1e82	-0.16808513
253	0x3e2f6fe8	0.17132533
254	0xbe3111ad	-0.17291899
255	0xba2e8f56	-0.0006658932

weight f4 [16]
0	0x3f803d27	1.0018662
1	0x3f7d8c96	0.9904264
2	0x3f7e11d6	0.99245965
3	0x3f800878	1.0002584
4	0x3f7c7a4a	0.986241
5	0x3f80037a	1.0001061
6	0x3f7b0cf4	0.9806664
7	0x3f7d6883	0.989876
8	0x3f7da652	0.9908191
9	0x3f83d971	1.0300733
10	0x3f7fe5d1	0.99960047
11	0x3f7c2d5f	0.9850673
12	0x3f835279	1.0259544
13	0x3f7f729f	0.9978427
14	0x3f81546f	1.0103892
15	0x3f801ada	1.0008194

bias f4 [16]
0	0x3cc4707f	0.023979424
1	0x3c00a0df	0.007850855
2	0x3ab6e066	0.0013952374
3	0x3d946186	0.072451636
4	0xbb9636e3	-0.0045841797
5	0x3cee33b8	0.029077396
6	0xbca23176	-0.019798975
7	0x3c7f36f8	0.01557707
8	0x3c93976d	0.018016541
9	0x3d2d9b76	0.042384587
10	0x3c9b75f9	0.018977152
11	0xbc8b2892	-0.016987119
12	0x3d95c67a	0.07313247
13	0x3d2948e1	0.04132927
14	0x3d1514fb	0.03639696
15	0x3c15f6a7	0.009153045

running_mean f4 [16]
0	0xbbfe7b4e	-0.007766164
1	0xbdbb7943	-0.09153988
2	0x3ee3006f	0.44336268
3	0xbcde1e56	-0.027114075
4	0xbe82789c	-0.25482643
5	0xbed75939	-0.4206026
6	0x3eaaf0d0	0.3338685
7	0x3e8691ff	0.2628326
8	0xbe1b6986	-0.15176973
9	0xbb932ff2	-0.0044917995
10	0xbde21b81	-0.11040402
11	0x3e50e408	0.20399487
12	0xbd06e774	-0.032935575
13	0x3db78fe4	0.08962992
14	0xbc1d0ded	-0.00958584
15	0xbdb48a2b	-0.08815416

running_var f4 [16]
0	0x3a57d9ae	0.0008234036
1	0x3b2a1695	0.0025953401
2	0x3d873272	0.066014186
3	0x3a5e1f7d	0.000847332
4	0x3c92567c	0.017863505
5	0x3d71f0dc	0.059067592
6	0x3ce91c77	0.028455956
7	0x3caf3ba1	0.021390738
8	0x3bd5552c	0.0065103974
9	0x3aa6359f	0.0012680775
10	0x3be51d78	0.0069920383
11	0x3ccc3e03	0.024931913
12	0x3ad0fadd	0.0015943904
13	0x3b4b2466	0.0030997037
14	0x3b071bb1	0.002061587
15	0x3bc924b9	0.006138411

weight f4 [16, 16, 3, 3]
0	0xbd3687b1	-0.044563
1	0x3d79fdd3	0.06103308
2	0xbd1fe9ea	-0.039041437
3	0xbd681906	-0.05666449
4	0x3d895839	0.0670628
5	0xbd339bfa	-0.043849923
6	0x3b20fa0a	0.0024563097
7	0xbdb3eab5	-0.08785001
8	0xbda9b324	-0.082861215
9	0xbd9a7ab2	-0.075429335
10	0x3ca4bc94	0.020109452
11	0x3c2aab4e	0.010416819
12	0xbd5fd09e	-0.054642312
13	0x3cd54b38	0.026036844
14	0xbd253bd4	-0.04034026
15	0xbce7f3b1	-0.028314443
16	0x3ac35b19	0.0014904469
17	0xbd088e9c	-0.033339128
18	0x3d88b713	0.06675544
19	0xbd70e20e	-0.058809333
20	0x3d04ecea	0.0324525
21	0xbd8112e2	-0.0630243
22	0x3b252ccd	0.0025203705
23	0x3d5850bd	0.052811373
24	0x3d1dc8a1	0.038521413
25	0x3d3280b6	0.04357978
26	0xbd0967e4	-0.033546343
27	0x3d1aa82d	0.03775804
28	0xbd892a5d	-0.06697533
29	0x3d00d2a0	0.031450868
30	0x3d2318b0	0.039818466
31	0xbd9e5392	-0.077307835
32	0xbc874444	-0.016512044
33	0x3daa6427	0.08319884
34	0x3d24e11d	0.040253747
35	0x3d6f9ea2	0.058500893
36	0x3d7de0d6	0.061982
37	0xbc85b574	-0.016321875
38	0xbcb15544	-0.021647103
39	0xbd4c7142	-0.0499127
40	0xbd4b8d96	-0.049695574
41	0x3d4afec9	0.04955939
42	0xbd9e9876	-0.07743923
43	0x3cbca0c7	0.023025883
44	0xbd93798d	-0.07200918
45	0x3dca4b0b	0.098775946
46	0xbd4e10ad	-0.050308872
47	0xbd3043f1	-0.043033544
48	0x3d9cca68	0.076557934
49	0xbd839428	-0.06424743
50	0xbd3cb6f5	-0.04607292
51	0x3d2fedfc	0.04295157
52	0xbbfe8733	-0.007767582
53	0x3a4f0028	0.00078964466
54	0x3afbbe78	0.0019206544
55	0x3c98c570	0.018648833
56	0xbd8127d7	-0.06306427
57	0xbcad5451	-0.02115837
58	0x3d99d22b	0.075107895
59	0xbd78f344	-0.06077887
60	0x3d8c1f0b	0.068418585
61	0x3d7aca6a	0.061228193
62	0x3d8352f0	0.064123034
63	0xbc7bf4c4	-0.015378181
64	0xbd937005	-0.071991004
65	0x3c4b2e6c	0.012401205
66	0x3d8d7252	0.069065705
67	0x3bfeb9af	0.0077736
68	0xbd57ec31	-0.052715484
69	0x3c254107	0.0100863045
70	0xbc907570	-0.017634124
71	0xbcd8ddfa	-0.026473034
72	0x3cf26318	0.029588267
73	0x3ce6f45b	0.02819269
74	0x3d12a459	0.035801265
75	0xbdb0ab30	-0.086264014
76	0xbdb4ee73	-0.08834543
77	0xbcaeac99	-0.021322535
78	0xbb43e72f	-0.0029892435
79	0x3d077ec8	0.033079892
80	0xbd8b1b5d	-0.067923285
81	0x3db9cde9	0.09072477
82	0x3d789ccd	0.060696412
83	0xbd783458	-0.060596794
84	0x3cd48e8c	0.025946878
85	0xbd7e2cf5	-0.062054593
86	0x3d4593cb	0.04823665
87	0x3dc5dec2	0.09661628
88	0xba16259a	-0.0005727649
89	0xbccd505b	-0.02506273
90	0xbd346aa9	-0.04404703
91	0x3d29dda4	0.04147114
92	0x3d53d6f3	0.051718663
93	0x3da1dc29	0.0790332
94	0x3ceb39c6	0.028714072
95	0x3d85bf68	0.065306485
96	0xbd41a5e3	-0.047277343
97	0x3d425fa8	0.047454506
98	0x3cf7ec73	0.030264115
99	0x3b37b831	0.002803337
100	0xbc80cc90	-0.015722543
101	0xbd15bdcb	-0.036557954
102	0x3d91f563	0.07126882
103	0xbca9e497	-0.020738883
104	0xba73fa79	-0.00093070377
105	0x3d8c7bf9	0.068595834
106	0xbd7bcef5	-0.061476666
107	0x3d6005c2	0.05469299
108	0xbd9d5707	-0.07682615
109	0x3d523ea0	0.051329255
110	0x3db3ce1d	0.08779547
111	0x3d06ee7e	0.032942288
112	0xbdbfab77	-0.09358876
113	0xbc9041f8	-0.017609581
114	0xbd8c720d	-0.06857691
115	0xbde7d897	-0.11320608
116	0x3c67174e	0.014104677
117	0x3c8f825a	0.017518211
118	0x3d6a4da1	0.05720294
119	0xbd6e7850	-0.058220208
120	0xbc0c5717	-0.008565686
121	0x3d49c9de	0.04926478
122	0x3d83757c	0.06418893
123	0xbc9ab3cc	-0.018884562
124	0x3d8959e7	0.06706601
125	0xbd1ffc4f	-0.03905898
126	0xbcced3b9	-0.025247442
127	0x3da3ae7f	0.07992267
128	0xbd577c06	-0.052608512
129	0x3d5d1a1e	0.053979985
130	0x3cda9e85	0.026686916
131	0xbc6d949f	-0.014500766
132	0xbc7dece7	-0.015498376
133	0x3d1e04b0	0.03857869
134	0xbd38ae20	-0.045087934
135	0xbd2bdb6e	-0.04195731
136	0xbcf7d85a	-0.030254532
137	0xbd2a00d0	-0.04150468
138	0x3d7e8d3e	0.062146418
139	0xbdba53ed	-0.09098039
140	0xbd71dc81	-0.05904818
141	0xbd8ff924	-0.07029942
142	0x3b9d0655	0.0047920146
143	0x3d503462	0.050831206
144	0x3c9dde6d	0.0192711
145	0xbd843ee7	-0.0645731
146	0x3c48c87e	0.012254832
147	0x3d42d9a3	0.047570836
148	0x3db14d0e	0.08657275
149	0x3c8441c6	0.016144644
150	0x3d583171	0.052781526
151	0x3b024beb	0.0019881676
152	0xbc815cad	-0.015791262
153	0x3d9797cd	0.074020006
154	0xbcc95884	-0.02457834
155	0xbc4de332	-0.012566375
156	0x3dabf15a	0.083956435
157	0xbcdc5518	-0.026896045
158	0x3ce98a6f	0.028508393
159	0x3d2126b8	0.039343566
160	0x3c690c75	0.014224161
161	0xbce09881	-0.02741647
162	0xbd06194e	-0.032738976
163	0xbd0dc14c	-0.03460817
164	0xbbfb5d3b	-0.007671026
165	0x3cafe479	0.021471249
166	0x3d0d4012	0.03448493
167	0x3d85698a	0.065142706
168	0xbd8004d6	-0.062509224
169	0xbb2a39ed	-0.0025974468
170	0x3c409e96	0.01175656
171	0x3c0134a7	0.007886088
172	0x3dbcf815	0.092270054
173	0x3d1fdf0a	0.039031066
174	0x3d9193fd	0.07108305
175	0xbd0969a3	-0.03354801
176	0xbd33c00f	-0.043884333
177	0xbc9e1dc2	-0.019301299
178	0xbbc2600c	-0.00593186
179	0xbcd02698	-0.025409028
180	0x3b7f6542	0.0038970266
181	0xbce49982	-0.02790523
182	0xbd2dc6be	-0.042425863
183	0xbd0df609	-0.034658466
184	0xbd816838	-0.06318706
185	0x3dbbefb5	0.0917658
186	0x3d992f41	0.07479716
187	0x3c300680	0.010743737
188	0xbc8bb062	-0.01705188
189	0xbd052562	-0.032506354
190	0xbd89dc86	-0.06731515
191	0xbd0e888d	-0.034798194
192	0x3d69a898	0.05704555
193	0xbc632930	-0.0138648
194	0x3caae885	0.020862827
195	0x3d539533	0.05165596
196	0xbce7340a	-0.028223056
197	0x3d5f66a0	0.05454123
198	0x3c8d522a	0.017251093
199	0x3c92754b	0.017878195
200	0xbd1c8a7a	-0.038218
201	0xbd2903f2	-0.04126353
202	0xbd6ca94a	-0.057778634
203	0xbd1983b9	-0.037479136
204	0xbcbdbc1d	-0.023160988
205	0xbd928240	-0.071537495
206	0xbd9188a7	-0.071061425
207	0x3da5770e	0.080793485
208	0x3d37207a	0.044708706
209	0xbd382631	-0.044958297
210	0x3c6e7b14	0.014555711
211	0x3d03697a	0.032083012
212	0xbd96d1a9	-0.07364208
213	0xbd576f86	-0.05259659
214	0x3d3e89ae	0.04651802
215	0x3afcd7fa	0.001929044
216	0xbd3259c6	-0.043542646
217	0xbd08a6d5	-0.03336223
218	0xbd843308	-0.06455046
219	0x3d0d16ac	0.03444545
220	0xbd3a1acd	-0.045435715
221	0x3ca1067b	0.01965641
222	0xbd62366d	-0.055227686
223	0x3dbb7775	0.09153644
224	0xbd47975a	-0.048728324
225	0xbb8b047f	-0.0042424793
226	0xbc17110b	-0.009220372
227	0xbc4a2def	-0.012340053
228	0xbccefcd6	-0.025267046
229	0x3db86d47	0.09005218
230	0x3c81d610	0.015849143
231	0xbb10c0f4	-0.0022087665
232	0x3d21db1f	0.03951561
233	0xbd806039	-0.06268353
234	0x3d118fb4	0.035537437
235	0x3d7b716e	0.06138747
236	0xbcf07df1	-0.029356929
237	0x3d1abbab	0.03777663
238	0x3d31ed44	0.043439165
239	0xbba767a7	-0.005108792
240	0x3d0d5d58	0.034512848
241	0xbc6a4114	-0.014297742
242	0x3d318017	0.043335047
243	0x3d9730ee	0.073823795
244	0x3d855810	0.06510937
245	0xbd7862b6	-0.060641013
246	0xbc4e0623	-0.012574705
247	0x3c127808	0.0089397505
248	0xbd8ccd40	-0.06875086
249	0x3d696092	0.056976862
250	0xbadafea5	-0.001670797
251	0xbd62eb98	-0.05540046
252	0xbd729ef2	-0.059233613
253	0xbda4fb19	-0.080557056
254	0x3d0ca1d0	0.034334004
255	0x3d108fab	0.035293262

weight f4 [16]
0	0x3f7e465c	0.9932611
1	0x3f8078c3	1.0036854
2	0x3f815d27	1.0106553
3	0x3f7e3a32	0.9930755
4	0x3f7a705b	0.9782769
5	0x3f7e2228	0.9927087
6	0x3f7e1fb4	0.99267125
7	0x3f81dd0b	1.0145582
8	0x3f7cd99a	0.98769534
9	0x3f80e95f	1.0071219
10	0x3f81d097	1.0141782
11	0x3f80af1d	1.005344
12	0x3f83da04	1.0300908
13	0x3f7e932e	0.9944333
14	0x3f83441c	1.025516
15	0x3f7c458d	0.98543626

bias f4 [16]
0	0xbbb0d8d3	-0.005396941
1	0x3c7071eb	0.014675598
2	0x3c6ffc25	0.014647518
3	0x3c6c2667	0.014413453
4	0x3c261e88	0.010139115
5	0x3c87ac51	0.016561659
6	0x3b9b4179	0.0047380296
7	0x3caa213e	0.020767804
8	0xbc72003b	-0.014770563
9	0x3ca6dd78	0.020369276
10	0x3d18d117	0.03730878
11	0x3c01dac3	0.007925692
12	0x3cb0c599	0.021578597
13	0x3b7ce274	0.0038587125
14	0x3cf643f8	0.030061707
15	0x3a437f17	0.00074575975

running_mean f4 [16]
0	0xbd515538	-0.05110666
1	0xbdc60ffa	-0.09671016
2	0xbe064a85	-0.13114364
3	0x3dbd60e1	0.09246994
4	0xbda01fe5	-0.078185834
5	0xbce76b15	-0.028249303
6	0x3ddf7f2a	0.109129265
7	0x3c0d9346	0.00864107
8	0x3dc7b918	0.09752101
9	0xbdc24c76	-0.0948724
10	0xbe81efb9	-0.25378206
11	0xbe16ff56	-0.1474584
12	0xbdeb59fe	-0.11491774
13	0x3d2c6162	0.04208506
14	0xbe0554ab	-0.1302058
15	0xbe924d82	-0.2857476

running_var f4 [16]
0	0x3e24f2ee	0.16108295
1	0x3de1efb0	0.11032045
2	0x3d99dec8	0.07513195
3	0x3db1028d	0.08643065
4	0x3dfba001	0.12286378
5	0x3d8dfa87	0.0693255
6	0x3de1db4c	0.11028156
7	0x3d6e89d8	0.058236927
8	0x3dcb0e80	0.09914875
9	0x3d57a87e	0.05265092
10	0x3e12b0a3	0.14325194
11	0x3dc0a715	0.09406868
12	0x3d7fd05c	0.062454566
13	0x3dfd65f3	0.12372961
14	0x3d8b5276	0.068028376
15	0x3e0e3d74	0.1389063

weight f4 [16, 16, 3, 3]
0	0xbc905f39	-0.01762353
1	0x3d9e7fe5	0.07739238
2	0xbd9e9e7b	-0.077450715
3	0xbd9b58bb	-0.07585283
4	0x3cff51c5	0.03116692
5	0xbd8975bb	-0.067119084
6	0xbd179aa1	-0.0370127
7	0xbbd85952	-0.0066024447
8	0xbd6033f8	-0.05473706
9	0x3b9708af	0.0046091895
10	0x3d8f3584	0.06992629
11	0xbd2bb5d2	-0.041921444
12	0xbd7c07b1	-0.061530773
13	0x3b9952b7	0.00467905
14	0x3c82ba13	0.015957868
15	0x3d0383a1	0.032107953
16	0xbd94cfa5	-0.072661676
17	0xbd5c162f	-0.053732093
18	0x3d339b17	0.043849077
19	0xbba8b870	-0.00514894
20	0x3db9eaf1	0.09078015
21	0xbd9249ae	-0.071429595
22	0x3c6ed96c	0.014578205
23	0x3d64d05e	0.055862777
24	0x3d7c338a	0.06157259
25	0x3da6b22e	0.08139454
26	0xbc430b13	-0.011904496
27	0xbddae783	-0.106886886
28	0x3c55223b	0.013008649
29	0xbdb0dbcb	-0.08635672
30	0xbd2aed22	-0.041730054
31	0x3d550ad2	0.052012272
32	0x3ce75cc6	0.02824248
33	0x3d664341	0.056216482
34	0x3d1b7fab	0.03796355
35	0x3d270eff	0.040785786
36	0xbc9c83a2	-0.019105736
37	0x3c1aba5a	0.009443844
38	0x3d89f6df	0.0673654
39	0xbd0fcda8	-0.03510824
40	0xbca94b3d	-0.02066576
41	0x3d69429c	0.05694829
42	0x3bc25519	0.0059305546
43	0x3c932a2d	0.017964447
44	0x3d611e4c	0.054960534
45	0x3c28e106	0.010307556
46	0xbda399e1	-0.079883344
47	0x3d914b2c	0.07094416
48	0xbd88a8ab	-0.06672796
49	0xbd1a8dae	-0.037732773
50	0x3cc1db31	0.023664089
51	0xbd8523e8	-0.06500989
52	0x3ce7eb65	0.028310487
53	0x3d7e4a50	0.06208259
54	0x3d8d6f5b	0.06906005
55	0xbd7c43d1	-0.061588112
56	0xbd74d294	-0.059771135
57	0xbd39d82f	-0.045372184
58	0xbd23a69e	-0.03995382
59	0xbd9e3ac4	-0.077260524
60	0x3ca153c0	0.019693255
61	0x3d9a360a	0.075298384
62	0xbcdc2420	-0.026872694
63	0x3bd13dae	0.0063855266
64	0x3c5391e0	0.012913197
65	0xbd944644	-0.072399646
66	0xbd82aa89	-0.06380183
67	0x3d0c16c9	0.034201417
68	0xbd74c3ad	-0.059756923
69	0x3d531ff9	0.051544163
70	0xbcb5b43f	-0.022180675
71	0x3d3e336a	0.04643575
72	0x3d5dc668	0.054144293
73	0x3d3c4f22	0.045973904
74	0x3d8cb6b7	0.068707876
75	0x3da68c38	0.08132213
76	0xbc89a748	-0.016803399
77	0xbbd863c7	-0.0066036913
78	0xbd128c62	-0.03577841
79	0x3d746315	0.059664804
80	0xbbae65ec	-0.0053222086
81	0x3dbb0ea2	0.0913365
82	0x3c5e1652	0.013555126
83	0xbc5ff5c2	-0.013669433
84	0x3c433ef3	0.011916864
85	0xbd9d8fbe	-0.07693432
86	0xbd702929	-0.058633003
87	0x3d9bbfbd	0.076049305
88	0xbd4037ba	-0.046928145
89	0x3b74a603	0.0037330396
90	0xbda06f27	-0.078337006
91	0xbd28a814	-0.041175917
92	0xbce80e85	-0.028327236
93	0xbc150b31	-0.0090969065
94	0x3cb6b0ba	0.022301067
95	0x3d710a0a	0.058847465
96	0x3b9d5806	0.004801753
97	0xbadad145	-0.0016694447
98	0x3d7f5d02	0.06234456
99	0x3d0eb852	0.03484375
100	0x3c34c00c	0.011032116
101	0x3daa1250	0.08304274
102	0x3dc1fab9	0.0947165
103	0x3ba59d98	0.005054187
104	0x3d0de36b	0.03464071
105	0x3bc99182	0.006151379
106	0xbd1eccbd	-0.038769472
107	0xbd8c7ef5	-0.06860153
108	0x3c80a19a	0.015702058
109	0x3cf7de26	0.030257296
110	0xbd5151ad	-0.051103283
111	0xbd1bbcae	-0.038021736
112	0x3c6018f1	0.0136778215
113	0xbc3520c0	-0.0110551715
114	0xbc5c6ca8	-0.01345364
115	0xbd59c0d4	-0.05316241
116	0xbd7af884	-0.06127216
117	0x3d83f5cc	0.064433664
118	0xbc187216	-0.009304544
119	0xbd2fd4dc	-0.042927608
120	0x3caec5ba	0.021334518
121	0xba931627	-0.0011221812
122	0x3cee9e79	0.0291283
123	0x3d13c564	0.03607692
124	0x3d093bd3	0.03350432
125	0x3c90d5b7	0.017680032
126	0x38ed7226	0.000113223025
127	0xbcc5985a	-0.024120498
128	0x3d299de6	0.04141035
129	0xbc9d03da	-0.019166876
130	0x3d1a414a	0.03765992
131	0xbc5828c8	-0.013193317
132	0xbd8dcc6b	-0.06923755
133	0x3c1f40ef	0.009720071
134	0xbc3a4225	-0.011368309
135	0x3d00b07c	0.03141831
136	0xbd8e5366	-0.06949501
137	0xbd613b96	-0.054988466
138	0xbd9c7bbe	-0.076407894
139	0x3d1ac697	0.037787046
140	0x3d950088	0.07275492
141	0xbdc64d3d	-0.09682701
142	0xbdbcc187	-0.092166
143	0x3d5a0e15	0.053236086
144	0x3b2b284a	0.0026116543
145	0x3c8c477a	0.017123926
146	0x3ab5965e	0.0013854017
147	0x3c9fa7a3	0.019489115
148	0x3bda2053	0.0066566854
149	0xbcfecaf2	-0.031102631
150	0x3d02263f	0.031774756
151	0x3cfd829c	0.030946068
152	0x3d1962e5	0.03744783
153	0x3d8127cd	0.063064195
154	0xbcc9c9d0	-0.024632365
155	0x3d96395d	0.0733516
156	0xbd18a81c	-0.037269697
157	0xbd2690b2	-0.040665336
158	0x3b7d3caa	0.0038640895
159	0xbd716623	-0.058935296
160	0xbd157129	-0.03648487
161	0xbc14089b	-0.009035255
162	0xb9b444ad	-0.00034383443
163	0x3d72b9df	0.05925929
164	0x3d3f8010	0.04675299
165	0xbd82354e	-0.06357823
166	0xbd65c268	-0.056093603
167	0x3d87555a	0.066080764
168	0x3bbe285e	0.005803152
169	0xbd492367	-0.049106028
170	0x3da09a3b	0.07841917
171	0x3d44b451	0.048023526
172	0xbd2fcb8e	-0.042918734
173	0xbcc69a67	-0.024243547
174	0xbbce7b72	-0.006301337
175	0xbd50b519	-0.05095396
176	0x3d03c969	0.0321745
177	0xbda0ea89	-0.07857234
178	0x3ac2a6d9	0.001485075
179	0xbd774fe5	-0.060378928
180	0xbcf874f4	-0.030329205
181	0x3d259c78	0.040432423
182	0xbd17b5b3	-0.037038516
183	0x3d0bb639	0.034109328
184	0xbc12291c	-0.008920934
185	0xbd2cd7ee	-0.042198114
186	0xbd9163ee	-0.07099138
187	0x3d873f63	0.06603887
188	0x3b723628	0.003695855
189	0xbc9d5beb	-0.019208869
190	0xbd79c66d	-0.06098025
191	0x3d9603b1	0.07324923
192	0xbce6049f	-0.028078375
193	0x3d9542a3	0.072881006
194	0xbcd39b8c	-0.025831006
195	0xbd98823f	-0.074467175
196	0xbcac5f2a	-0.021041472
197	0xbd17bb7e	-0.03704404
198	0x3d4b00df	0.049561378
199	0x3d09d91d	0.03365432
200	0xbaca7e9a	-0.0015449107
201	0x3da1515d	0.07876847
202	0xbd006564	-0.031346694
203	0xbd358a7e	-0.04432153
204	0xbda1c36b	-0.07898601
205	0x3c2c0df6	0.010501375
206	0xbd3de729	-0.04636303
207	0xbc6dfd9c	-0.014525797
208	0xbbcdccb9	-0.0062805084
209	0x3d0b248b	0.033970397
210	0x3d535447	0.051594045
211	0x3d8c30c3	0.06845238
212	0x3d80c329	0.06287224
213	0x3d661143	0.056168806
214	0xbd84236d	-0.064520694
215	0x3b58a01c	0.0033054417
216	0x3d412756	0.047156654
217	0xb91a9db6	-0.00014745336
218	0x3cbb9582	0.02289844
219	0x3c0baf92	0.008525746
220	0xbd04be08	-0.03240779
221	0x3ca8915d	0.020577127
222	0xbdbebe4e	-0.093136415
223	0x3d4b3f18	0.049620718
224	0xbd00dda0	-0.031461358
225	0xbdb3b6a5	-0.08775071
226	0xbdc5d0b8	-0.096589506
227	0x3b31350e	0.002703968
228	0x3d2784f3	0.040898275
229	0xbcca988b	-0.024730941
230	0xbdb33554	-0.08750406
231	0xbd8af4f1	-0.06785
232	0x3bdc260e	0.0067184037
233	0xbdbece20	-0.09316659
234	0x3c5be81f	0.013422041
235	0x3cb29988	0.021801725
236	0xbd5a4e56	-0.053297363
237	0x3d251292	0.040300913
238	0xbcb8acc1	-0.022543313
239	0x3d9b4c75	0.075829424
240	0x39f1f079	0.00046146268
241	0x3da13aa3	0.07872512
242	0x3d80ead1	0.06294788
243	0xbd53d608	-0.051717788
244	0x3d085f55	0.03329404
245	0xbc11a07e	-0.008888362
246	0x3d6486ff	0.055792805
247	0x3c105577	0.008809439
248	0x3d4a9ba5	0.04946484
249	0xbbfa8e77	-0.0076463777
250	0xbcf4a9ad	-0.029866064
251	0x3ceb3f6b	0.028716763
252	0xbd5f4d03	-0.054516803
253	0x3bfc3439	0.007696655
254	0x3c341466	0.0109911915
255	0xbd833282	-0.06406118

weight f4 [16]
0	0x3f7bd721	0.98375136
1	0x3f83aea3	1.028767
2	0x3f7e7d8f	0.9941034
3	0x3f7e7fcd	0.9941376
4	0x3f82458f	1.0177478
5	0x3f7e07f6	0.992309
6	0x3f803389	1.0015727
7	0x3f7b4484	0.9815142
8	0x3f7fa3d7	0.99859375
9	0x3f7e72d3	0.9939396
10	0x3f7f186d	0.99646646
11	0x3f81c243	1.0137409
12	0x3f7fbddd	0.99899083
13	0x3f7e0091	0.99219614
14	0x3f7b7896	0.98230875
15	0x3f7d83a8	0.99029016

bias f4 [16]
0	0xbc211728	-0.009832181
1	0x3d272cc1	0.040814165
2	0x3b973f7b	0.0046157218
3	0x3c782013	0.015144366
4	0x3b327f82	0.0027236645
5	0xb9ebf214	-0.00045003055
6	0x3ae51ef8	0.0017480543
7	0xbc74b963	-0.014936778
8	0xbb6cb0e5	-0.003611618
9	0x3b838e3b	0.004014758
10	0x3b0a0f3b	0.0021066207
11	0x3cb738ea	0.022366006
12	0x3bd2a91b	0.0064288503
13	0x3c8b2d40	0.01698935
14	0xbb95ceb0	-0.004571758
15	0x3c01422f	0.007889315

running_mean f4 [16]
0	0xbd06d1b2	-0.032914825
1	0x3d97c0f5	0.074098505
2	0x3e30627a	0.17225066
3	0xbb544815	-0.0032391597
4	0x3bfcc2ff	0.007713675
5	0xbe9a78ff	-0.30170438
6	0xbdbe739f	-0.09299397
7	0x3e6e8f9a	0.23296967
8	0xbe2ec5e2	-0.17067674
9	0xbe286119	-0.1644329
10	0x3e727851	0.2367871
11	0x3ce3a796	0.027789872
12	0xbecf64e3	-0.40506658
13	0x3d9d0998	0.076678455
14	0xbeaf0e1a	-0.34190446
15	0xbea91514	-0.33023894

running_var f4 [16]
0	0x3e07e7d0	0.13272023
1	0x3e41fd30	0.1894424
2	0x3e130c82	0.1436024
3	0x3e1567db	0.14590399
4	0x3daa2b93	0.083090924
5	0x3e57a0a8	0.21057379
6	0x3e0019c7	0.12509833
7	0x3e81339c	0.25234687
8	0x3e259481	0.16169931
9	0x3d9bdd35	0.07610551
10	0x3e0d74d3	0.13814096
11	0x3e123f9b	0.14282076
12	0x3e78a408	0.24281323
13	0x3e430635	0.19045337
14	0x3e2f9322	0.1714597
15	0x3eab2540	0.33426857

weight f4 [16, 16, 3, 3]
0	0x3c66e0f1	0.014091716
1	0x3c60fd61	0.013732285
2	0xbdb3731b	-0.08762189
3	0xbbd53048	-0.0065059997
4	0xbd6cd0ea	-0.057816423
5	0x3d0d5696	0.034506403
6	0x3d131428	0.035907894
7	0xbcac5eb3	-0.02104125
8	0x3ce433de	0.027856763
9	0x3dac4ba6	0.08412866
10	0x3d3c9c6b	0.04604761
11	0xbc6ef1a6	-0.014583981
12	0x3da778b7	0.081773214
13	0x3d7c6ccd	0.061627198
14	0xbd07e2d0	-0.03317529
15	0xbd84b3f6	-0.06479637
16	0xbd2b5697	-0.041830625
17	0x3b4876de	0.0030588428
18	0x3d78605b	0.060638767
19	0xbcbe4110	-0.023224384
20	0xbce1d415	-0.027566949
21	0x3da80f7b	0.08206078
22	0x3b9c34d4	0.00476704
23	0xbc952251	-0.01820484
24	0x3d3fc61b	0.046819787
25	0xbd8b469e	-0.068005785
26	0xbdcd5d84	-0.10027602
27	0x3d67587b	0.056480866
28	0x3ca2d131	0.01987514
29	0x3d47d4ce	0.04878693
30	0xbd76c0ff	-0.06024265
31	0x3d066b38	0.032817096
32	0xbbbe89d6	-0.005814771
33	0xbc7bda51	-0.015371875
34	0xbdbe4f87	-0.092925124
35	0x3d0d7e7f	0.034544464
36	0x3d9d1348	0.07669693
37	0x3d63b89a	0.05559597
38	0x3c612ae5	0.013743137
39	0x3d85d477	0.06534665
40	0xbc7837b8	-0.015150003
41	0x3aae45ce	0.001329595
42	0x3cd036f4	0.025416829
43	0x3bea8c11	0.0071578105
44	0x3d9588c4	0.073014766
45	0xbd591d26	-0.053006314
46	0xbcb7d2c7	-0.022439374
47	0x3d959206	0.073032424
48	0x3ce471a5	0.027886221
49	0x3c8b034d	0.016969347
50	0xbd080930	-0.033211887
51	0xbc8b0d7e	-0.016974207
52	0x3c297a02	0.01034403
53	0x3d836a8a	0.06416805
54	0x3d4fced4	0.050734356
55	0xbce00035	-0.027343849
56	0x3d2dd6e3	0.04244126
57	0xbd8f6e3b	-0.07003447
58	0xbd99de79	-0.075131364
59	0xbc9aa804	-0.018878944
60	0xbbc1c2d1	-0.0059131165
61	0xbd375951	-0.044762913
62	0x3c71c7d6	0.014757117
63	0x3d71eb6c	0.059062406
64	0xbd4b378a	-0.049613513
65	0xbdb2a833	-0.08723488
66	0x3d625222	0.05525411
67	0xbba964be	-0.00516948
68	0xbd848d74	-0.064722925
69	0x3ccc3326	0.024926733
70	0xbd116bdc	-0.035503253
71	0x3d3b97dd	0.045799125
72	0xbdbff5f8	-0.09373087
73	0x3c2e8f11	0.010654227
74	0xbcd4a8a2	-0.025959317
75	0x3d70098c	0.058602855
76	0x3d43a9f4	0.0477695
77	0xbcc82021	-0.024429383
78	0x3ca3403e	0.019928094
79	0xbd7fb01c	-0.06242381
80	0x3acf341b	0.0015808375
81	0xbd48079f	-0.048835393
82	0xbd6c189b	-0.057640653
83	0xbca85b11	-0.020551236
84	0xbce8ee2c	-0.028433882
85	0xbc343e58	-0.011001192
86	0x3dad00bd	0.084474064
87	0x3cf4f03b	0.029899707
88	0xbbc8eac4	-0.006131502
89	0x3da0db80	0.07854366
90	0x3c9f2216	0.019425433
91	0xbd8c3bee	-0.06847368
92	0x3d0d5585	0.034505386
93	0x3d038b1c	0.032115087
94	0xbd7d0719	-0.061774347
95	0x3d8d0c93	0.06887164
96	0x3da0624d	0.078312494
97	0xbc271bf2	-0.010199534
98	0xbd09aba3	-0.03361095
99	0x3c5d1c75	0.013495554
100	0xbd823968	-0.063586056
101	0xbd672873	-0.05643506
102	0x3d565c27	0.052333977
103	0x3d82fc5b	0.06395789
104	0xbc87db92	-0.016584191
105	0xbd537091	-0.051621024
106	0x3d5e5a59	0.05428538
107	0xbcff609c	-0.031173997
108	0x3d6fa5db	0.05850778
109	0xbd31173a	-0.04323504
110	0xbd9b3ddb	-0.07580157
111	0x3d3002eb	0.042971533
112	0xbd93473a	-0.0719132
113	0xbd26b105	-0.040696163
114	0x3d0d0cb1	0.03443593
115	0xbd80e2da	-0.062932685
116	0x3d92b489	0.071633406
117	0xbd610a0c	-0.054941222
118	0x3d2dc432	0.042423435
119	0xbd82ec2b	-0.06392702
120	0xbced7ccb	-0.02899017
121	0xbd49e07c	-0.04928635
122	0x3c3b8daf	0.011447354
123	0xbc0c23a7	-0.008553422
124	0x3d8357a2	0.06413199
125	0xbd70d97a	-0.05880115
126	0xbc95c4cd	-0.018282318
127	0xbd184aa5	-0.03718056
128	0xb9269fcd	-0.00015890524
129	0x3d9ab439	0.07553906
130	0x3d9b042f	0.07569157
131	0x3d5ed254	0.054399803
132	0x3ca5ed28	0.020254686
133	0xbd1e3f08	-0.03863433
134	0x3d098f65	0.033584017
135	0xbc6f7b18	-0.01461675
136	0xbd89013a	-0.06689687
137	0x3d16d5e8	0.03682509
138	0xbc83c601	-0.016085627
139	0x3ce024dc	0.027361326
140	0xbd7e3a5f	-0.062067386
141	0x3d821f4f	0.06353628
142	0x3d4ba3ff	0.049716946
143	0x3cac5a89	0.021039264
144	0xbc83c7e6	-0.01608653
145	0xbd890171	-0.06689728
146	0xbd9fde35	-0.078060545
147	0xbcbdee30	-0.023184866
148	0x3cafecfb	0.021475306
149	0x3d0ac9bc	0.033883795
150	0xbc973f38	-0.018462762
151	0x3da0847d	0.0783777
152	0x3cc0c7f2	0.023532841
153	0x3da5d57b	0.08097359
154	0x3d931e1e	0.07183479
155	0xbd91c788	-0.07118136
156	0x3db604da	0.08887644
157	0xbc852905	-0.016254911
158	0x3bef7b18	0.007308375
159	0x3cb88570	0.022524565
160	0x3ce7b28a	0.028283376
161	0xbdad4249	-0.084599085
162	0xbd133832	-0.035942264
163	0xbd06747f	-0.032825943
164	0xbce8b49a	-0.02840643
165	0x3d748c52	0.059704132
166	0x3bd9f4ed	0.006651512
167	0x3d908164	0.07055929
168	0x3daf47c4	0.0855861
169	0x3dcee306	0.10101895
170	0xbd487a06	-0.048944496
171	0xbd417e14	-0.047239378
172	0x3d8827f6	0.06648247
173	0xbd8a6c2f	-0.06758916
174	0xbc0f63f7	-0.008751861
175	0x3d687e95	0.056761343
176	0x3d2efedd	0.042723525
177	0xbc83a4a5	-0.01606972
178	0xbc06169c	-0.008184101
179	0xbd762f9f	-0.06010401
180	0x3cd5293d	0.02602064
181	0xbd2d5366	-0.042315863
182	0x3d170a1b	0.03687487
183	0x3dbc69bb	0.09199854
184	0xbd4899a6	-0.048974656
185	0x3d7f403b	0.062317114
186	0x3db3d480	0.087807655
187	0x3c2ea8ad	0.010660333
188	0x3c216e4e	0.009852959
189	0xbcee199e	-0.02906495
190	0x3c16473c	0.009172257
191	0x3d6a126b	0.05714647
192	0x3da47cc4	0.0803161
193	0xbbff6583	-0.0077940836
194	0x3c1cfe21	0.009582073
195	0xbba34a4f	-0.0049832235
196	0xb8d4261c	-0.00010116046
197	0xbc41af0d	-0.0118215205
198	0x3d38ad44	0.045087114
199	0x3ca38460	0.019960582
200	0xbcea9782	-0.028636698
201	0xbcc009f3	-0.023442244
202	0x3d3204d8	0.04346165
203	0xbd92f5d1	-0.07175792
204	0x3d8ff6d6	0.07029502
205	0xbdae1c9a	-0.08501549
206	0x3d66a712	0.056311674
207	0xbda7df89	-0.08196933
208	0x3c41d8d2	0.011831479
209	0xbcf7cad5	-0.030248085
210	0xbcfd3b85	-0.03091217
211	0xbd94430b	-0.0723935
212	0x3cc79c0a	0.024366397
213	0x3b83ab75	0.004018242
214	0xbda2b9c3	-0.079455875
215	0xbd4ab636	-0.049490176
216	0xbb2f0335	-0.0026704792
217	0x3c833cf3	0.016020274
218	0xbcee8ad9	-0.029118942
219	0x3d67f163	0.05662669
220	0x3d7ce23c	0.06173919
221	0x3cd3a8f2	0.025837395
222	0xbd30a9b8	-0.043130606
223	0xbb4593c1	-0.0030147883
224	0xbcc02a77	-0.023457749
225	0xbceb45a3	-0.028719729
226	0x3d344039	0.04400656
227	0x3cee0930	0.029057115
228	0x3b33c7f3	0.0027432411
229	0x3bdda902	0.006764532
230	0xbd85bdf8	-0.06530374
231	0xbc855df5	-0.016280154
232	0x3d9b32f2	0.075780764
233	0x3d3048ce	0.043038182
234	0x3c133cbc	0.008986648
235	0x3c0af188	0.008480437
236	0xbb108782	-0.0022053425
237	0xbce63b06	-0.028104316
238	0xbd877a37	-0.066151075
239	0xbcbc40ec	-0.022980176
240	0x3c74bacf	0.014937117
241	0x3c38b2db	0.011273111
242	0xbae17194	-0.0017199987
243	0xbbcebc5e	-0.006309076
244	0xbd04a5e7	-0.03238478
245	0xbd8bc557	-0.06824749
246	0xbd7f02fd	-0.06225871
247	0x3c8a7d38	0.016905412
248	0x3d5e8bbb	0.054332476
249	0x3d97808f	0.073975675
250	0xbd904119	-0.070436664
251	0xbbf53690	-0.007483311
252	0xbd17bbb8	-0.037044257
253	0x3d319f77	0.04336497
254	0xbda89950	-0.08232367
255	0x3d875fd9	0.06610078

weight f4 [16]
0	0x3f81d506	1.0143135
1	0x3f801806	1.0007331
2	0x3f82e3b6	1.0225742
3	0x3f810aae	1.0081384
4	0x3f7be396	0.98394144
5	0x3f7cdaf7	0.98771614
6	0x3f7e0c51	0.99237543
7	0x3f810616	1.0079982
8	0x3f803b48	1.0018091
9	0x3f7d0096	0.9882902
10	0x3f7f08f6	0.9962305
11	0x3f7eadfa	0.9948422
12	0x3f7ebe92	0.9950954
13	0x3f7d28a4	0.9889014
14	0x3f80751f	1.0035743
15	0x3f81be77	1.013625

bias f4 [16]
0	0x3cac9d21	0.021071019
1	0x3bdd40f3	0.0067521273
2	0x3950133a	0.00019843588
3	0x3c861572	0.016367648
4	0xbc32c68d	-0.010911596
5	0xbb1741b8	-0.0023079943
6	0x3c9b5de8	0.018965676
7	0x3c0a0540	0.008424103
8	0x3cca3170	0.024681777
9	0x3c3bcc9c	0.011462357
10	0xbbe6c6c5	-0.007042738
11	0x3b002e3b	0.0019558806
12	0x3ba58fec	0.005052557
13	0x3b13cb2e	0.0022551524
14	0x3c0410b3	0.008060622
15	0x3caa0c1a	0.020757724

running_mean f4 [16]
0	0x3d9da206	0.07696919
1	0x3e118136	0.14209446
2	0x3cc3cd78	0.023901686
3	0xbdf74b80	-0.12074947
4	0x3dfbf7f2	0.12303151
5	0x3e80ad9f	0.25132462
6	0x3e950c26	0.2911083
7	0x3e4aece1	0.19816925
8	0xbeb366e1	-0.35039428
9	0xbc69ab32	-0.014262008
10	0xbe9aabad	-0.30209103
11	0x3e917003	0.2840577
12	0x3ef0189c	0.46893775
13	0xbd98134c	-0.074255556
14	0xbe17bccb	-0.14818113
15	0xbf41d5c5	-0.7571681

running_var f4 [16]
0	0x3e33ddc9	0.17565073
1	0x3e366c7a	0.17814818
2	0x3e8a7bf2	0.27047688
3	0x3ea15c44	0.31515706
4	0x3e5f086d	0.21780558
5	0x3e5686ad	0.20949812
6	0x3e7ebe71	0.24877335
7	0x3e24b538	0.16084754
8	0x3e32080d	0.17385884
9	0x3e3db9d3	0.18527918
10	0x3e2896e4	0.1646381
11	0x3e62a936	0.22134861
12	0x3f1217e5	0.5706771
13	0x3e8505bf	0.25980946
14	0x3e5ad7bc	0.21371359
15	0x3e873027	0.26403925

weight f4 [16, 16, 3, 3]
0	0xbb1fe598	-0.0024398323
1	0xbcff7973	-0.031185841
2	0x3d1b929b	0.03798161
3	0xbd63f087	-0.055649307
4	0x3d818000	0.06323242
5	0xbc3fc286	-0.011704093
6	0x3d9279a6	0.07152109
7	0x3d487043	0.048935186
8	0x3d2d1a9c	0.042261705
9	0xbd1dae3e	-0.03849625
10	0x3d96eb58	0.07369107
11	0x3d8649f2	0.06557073
12	0x3d4ed6b4	0.050497726
13	0xbc33ac4d	-0.010966373
14	0x3d42de9a	0.04757557
15	0xbc814bb9	-0.015783178
16	0x3d5de9d5	0.054178078
17	0x3cbbb14a	0.022911686
18	0x3db0aed6	0.08627097
19	0x3db6996d	0.089159824
20	0x3d2556bc	0.04036592
21	0x3bff4067	0.00778966
22	0xbbdc82e1	-0.006729469
23	0x3c15dbbd	0.009146628
24	0xbcaa1b06	-0.020764839
25	0xbd32a3de	-0.043613307
26	0x3d5cc13d	0.053895224
27	0x3d73225a	0.059358932
28	0xbbb0c4bc	-0.0053945463
29	0x3d8c173f	0.06840371
30	0x3d288e93	0.041151594
31	0xbd1445da	-0.03619943
32	0xbd02c37a	-0.031924702
33	0x3c83345b	0.016016176
34	0xbcb82f9f	-0.022483645
35	0x3d920d35	0.07131425
36	0xbd9929f7	-0.07478707
37	0xbd7b0071	-0.061279718
38	0xbdaa4b26	-0.08315115
39	0x3dba7580	0.091044426
40	0xbd0bfe9c	-0.03417836
41	0xbc848d69	-0.01618071
42	0xbc35df75	-0.01110064
43	0x3d85b6eb	0.065290295
44	0x3c5a634b	0.013329337
45	0xbc316692	-0.010827677
46	0x3d68c65a	0.056829788
47	0x3ba2515e	0.0049535474
48	0xbda13032	-0.07870521
49	0xbd8ce70f	-0.068800084
50	0x3d46ff8c	0.048583552
51	0xbdabcb90	-0.08388436
52	0xbd7635a2	-0.060109742
53	0x3b707c6b	0.0036695253
54	0x3d8e04d8	0.069345176
55	0x3d77f51a	0.06053648
56	0x3c863422	0.01638228
57	0x3cae14e2	0.021250192
58	0x3b922f15	0.004461179
59	0xbd41f8d8	-0.047356457
60	0x3d8e75eb	0.06956085
61	0x3c9fcea1	0.019507708
62	0xbd7d7635	-0.06188031
63	0xbdaf92ec	-0.08572945
64	0x3d0511e6	0.032487772
65	0xbd40a1f8	-0.047029465
66	0xbdba68dc	-0.091020316
67	0xbd0a4d51	-0.03376514
68	0x3b828e39	0.0039842394
69	0x3c267ba7	0.010161317
70	0xbd03ba1f	-0.03215992
71	0xbd50f61f	-0.05101597
72	0xbc4aef23	-0.012386116
73	0xbd7d1352	-0.061786003
74	0xbd85a8b2	-0.06526317
75	0xbca9c1f3	-0.020722365
76	0x3d727415	0.059192736
77	0x3dae2b00	0.08504295
78	0xbd0a6300	-0.03378582
79	0xbcf21db1	-0.029555174
80	0x3da7534b	0.08170184
81	0x3d254b22	0.040354855
82	0xbd1df898	-0.038567156
83	0x3cf1b6ef	0.029506175
84	0xbd14be96	-0.03631457
85	0xbb98f57e	-0.004667937
86	0xbc2f0fc9	-0.010684916
87	0xbcf74bcf	-0.030187516
88	0x3cfc667e	0.03081059
89	0x3ba90513	0.0051580756
90	0xbd8d1283	-0.068882965
91	0xbce6022d	-0.02807721
92	0xbcacc88a	-0.021091718
93	0xbd4b524d	-0.049639035
94	0xbd25ac96	-0.040447794
95	0xbd908c84	-0.07058051
96	0x3c15ca18	0.009142421
97	0x3d7cc8f0	0.061715066
98	0x3c6c2c64	0.01441488
99	0x3d4612a5	0.048357625
100	0x3d92b276	0.07162945
101	0x3d7bc246	0.06146457
102	0x3d4c55c6	0.049886487
103	0xbd94581b	-0.07243367
104	0x3c9fd8ea	0.019512612
105	0x3d9a8f9a	0.07546921
106	0x3d589798	0.052878946
107	0xbb9d88e4	-0.0048075784
108	0xbcb5dc84	-0.022199877
109	0x3d860d6a	0.06545527
110	0xbc8f8678	-0.017520174
111	0x3c8753b2	0.016519401
112	0x3d1398ab	0.036034267
113	0x3d415d3a	0.04720805
114	0xbd6048c7	-0.054756906
115	0xbd245f24	-0.040129796
116	0xbda8bb34	-0.08238831
117	0xbd424fbf	-0.047439333
118	0xbd4fef27	-0.050765183
119	0x3d94a748	0.07258469
120	0xbc47c38e	-0.01219262
121	0xbd42a73c	-0.04752277
122	0x3d6e17fe	0.05812835
123	0xbcea0bae	-0.028570022
124	0xbd44e78a	-0.048072375
125	0x3c980bf3	0.018560385
126	0xbd8b40bc	-0.067994565
127	0xbd89c983	-0.067278884
128	0x3adf82e9	0.0017052564
129	0x3d8eea55	0.06978289
130	0x3d7f19c8	0.062280446
131	0xbcdf48fd	-0.027256483
132	0x3d018619	0.031622026
133	0x3be684e9	0.007034887
134	0xbbdecba2	-0.0067991773
135	0xbdb09912	-0.08622946
136	0xbd94a33f	-0.07257699
137	0x3d380b21	0.04493249
138	0xbd9d92fb	-0.0769405
139	0xbd4ddc8d	-0.05025916
140	0xbd4c6f9e	-0.049911134
141	0xbc999127	-0.018745972
142	0xbce3a222	-0.027787272
143	0xbc565f6d	-0.013084275
144	0xbdb4fd93	-0.08837428
145	0xbd8e2c25	-0.06942014
146	0xbd8853be	-0.066565976
147	0xbda6d229	-0.081455536
148	0xbcf7dc7d	-0.030256504
149	0x3c0f0177	0.008728377
150	0xbd302bd4	-0.043010548
151	0x3a3b9912	0.0007156293
152	0x3d2b4e65	0.04182281
153	0x3d29f149	0.041489873
154	0x3cb99c34	0.022657491
155	0xbd887fa6	-0.06664972
156	0x3c09da46	0.008413857
157	0x3d79d09e	0.06098997
158	0xbd69024a	-0.05688695
159	0xbb94cf31	-0.0045413007
160	0x3d83428e	0.06409179
161	0xbc2cd1cc	-0.010548066
162	0x3d7394e1	0.059468154
163	0x3d1b7ffa	0.037963845
164	0xbd1651e1	-0.03669918
165	0x3d4a08f9	0.049324963
166	0xbbcdfecc	-0.0062864777
167	0x3d2dee00	0.042463303
168	0xbd3d4d86	-0.04621651
169	0xbc03d219	-0.008045697
170	0xbd15ca2b	-0.036569756
171	0xbdbb9439	-0.091591306
172	0xbd6ced6e	-0.057843618
173	0x3d4ec62a	0.050481953
174	0x3c906031	0.017623993
175	0x3d9f6e49	0.07784707
176	0xbd9907de	-0.07472204
177	0x3d933676	0.07188122
178	0x3d790749	0.060797963
179	0x3d2e7b56	0.04259809
180	0xbad8e31b	-0.0016547175
181	0xbcc32f75	-0.02382634
182	0xbcceb053	-0.025230562
183	0x3c4b46d9	0.012407028
184	0xbd45b915	-0.04827221
185	0x3d048307	0.03235152
186	0xbccff4e0	-0.02538532
187	0xbd29a06a	-0.04141275
188	0xbcd9bb30	-0.026578516
189	0xbd9d6453	-0.07685151
190	0xbd63bd46	-0.055600427
191	0xbd9372a6	-0.07199602
192	0x3cfe1f5d	0.031020815
193	0xbaeb7657	-0.0017964345
194	0x3cdc42b4	0.026887275
195	0x3c820c34	0.01587496
196	0x3d1fa056	0.038971268
197	0x3cb1795d	0.021664316
198	0xbc55a2f4	-0.013039339
199	0xbd59a188	-0.053132564
200	0xbcdedf04	-0.027205952
201	0xbcc9ada8	-0.024618939
202	0x3c5f4ee1	0.013629646
203	0x3c392302	0.01129985
204	0xbd233ede	-0.039854877
205	0xbc9b49d0	-0.018956095
206	0xbc99467d	-0.01871037
207	0xbc84ce14	-0.016211547
208	0xbc95f784	-0.018306501
209	0x3d877798	0.066146076
210	0xbda8d4e2	-0.08243729
211	0xbae62f28	-0.0017561661
212	0x3db1f0bc	0.086884946
213	0xbc102933	-0.008798885
214	0xbc69e93e	-0.014276801
215	0x3d6d58e6	0.05794611
216	0x3a92ef4a	0.001121023
217	0xbd140c6c	-0.03614466
218	0xbd5a248b	-0.053257506
219	0xbd069ec5	-0.03286626
220	0xbb8e45f7	-0.0043418366
221	0xbd78fccd	-0.060787965
222	0xbda61418	-0.08109301
223	0xbd981ee1	-0.07427765
224	0x3d9eadc6	0.077479884
225	0xbd7fcd37	-0.062451568
226	0xbd8951ac	-0.06705031
227	0x3d4a4105	0.049378414
228	0x3d26bc90	0.04070717
229	0x3c42bc35	0.011885692
230	0xbd2dafa7	-0.042403843
231	0xbca7236d	-0.020402635
232	0xbc296150	-0.0103381425
233	0x3da65e6c	0.08123478
234	0xbccb3ec8	-0.02481021
235	0xbdadb539	-0.08481831
236	0xbdb08415	-0.08618943
237	0x3d9563c8	0.072944224
238	0x3d88c4fe	0.06678198
239	0x3c89bb6c	0.016813003
240	0xbd36a3bc	-0.044589743
241	0x3cd1701e	0.025566157
242	0xbc673233	-0.0141110895
243	0xbd2c0410	-0.04199606
244	0xbcfda681	-0.030963184
245	0x3da556f8	0.080732286
246	0x3d739358	0.05946669
247	0xbd08214c	-0.03323488
248	0xbd123616	-0.03569611
249	0xbd894297	-0.06702154
250	0x3d09e077	0.033661332
251	0x3d5ab65c	0.053396568
252	0xbd5ad4b0	-0.05342549
253	0xbd631e4b	-0.05544881
254	0xbcb8dbfb	-0.022565832
255	0xbd7b2e14	-0.06132324

weight f4 [16]
0	0x3f7f12be	0.99637973
1	0x3f80198b	1.0007795
2	0x3f7d1ea3	0.9887487
3	0x3f7f2d5d	0.99678594
4	0x3f7f06ba	0.9961964
5	0x3f7f3c19	0.99701077
6	0x3f80329a	1.0015442
7	0x3f7ec45d	0.99518377
8	0x3f807d34	1.0038209
9	0x3f834cb4	1.0257783
10	0x3f7eee08	0.99581957
11	0x3f822ec7	1.0170525
12	0x3f834629	1.0255786
13	0x3f81719b	1.0112795
14	0x3f80b97c	1.0056605
15	0x3f826e7d	1.0189968

bias f4 [16]
0	0xbc025398	-0.007954501
1	0x3c0c1936	0.008550933
2	0xbad9cc0b	-0.0016616596
3	0xbc433d85	-0.011916523
4	0x3cc10b39	0.023564922
5	0xbb17e81d	-0.0023179122
6	0x3c139eaf	0.009010001
7	0xbb937619	-0.0045001623
8	0x3bb925f0	0.0056502745
9	0xbbc75462	-0.0060830573
10	0x3b1ad63e	0.0023626233
11	0x3c0fda5c	0.008780088
12	0x3c01fad6	0.007933339
13	0x3c1a3609	0.009412297
14	0xbc1420f5	-0.009041061
15	0x3ca66c86	0.02031542

running_mean f4 [16]
0	0xbb865dae	-0.004100523
1	0xbee17fd5	-0.4404284
2	0xbdb3dd37	-0.08782428
3	0xbdff64fb	-0.12470432
4	0x3dfb318a	0.12265308
5	0xbc0dd779	-0.00865733
6	0xbe6d9d27	-0.2320448
7	0xbe2691ca	-0.16266552
8	0x3dedcbf6	0.11611168
9	0xbedd14d2	-0.43179947
10	0xbe0bd22d	-0.13654394
11	0xbe0a8ca2	-0.1353021
12	0xbd6bcb3b	-0.057566863
13	0xbecbac0f	-0.39779708
14	0xbe9fa26a	-0.311786
15	0x3be3c2e0	0.006950721

running_var f4 [16]
0	0x3e483e85	0.195551
1	0x3e98fa07	0.29878256
2	0x3e0cf5c8	0.13765633
3	0x3df81a66	0.1211441
4	0x3dd1f181	0.10251141
5	0x3db43933	0.087999724
6	0x3e0b822b	0.13623874
7	0x3db43010	0.0879823
8	0x3e28eeb5	0.1649731
9	0x3ea1fa45	0.31636253
10	0x3dce76cb	0.10081252
11	0x3de0bfd5	0.10974089
12	0x3e273648	0.163293
13	0x3df2a633	0.11848106
14	0x3dffb2ed	0.12485299
15	0x3de80c1b	0.11330434

weight f4 [32, 16, 3, 3]
0	0xbc132d64	-0.00898299
1	0x3cad852e	0.02118167
2	0x3da35194	0.07974544
3	0xbc387546	-0.011258429
4	0x3d7bfe8d	0.061522055
5	0x3d400158	0.04687628
6	0x3d510299	0.051027868
7	0xbadca22d	-0.0016833
8	0xbd0e2b6c	-0.03470938
9	0x3b22cc11	0.0024840871
10	0x3d99287f	0.07478427
11	0xbcc3edb6	-0.02391706
12	0x3da7f8f1	0.08201779
13	0xbd8f9f22	-0.07012774
14	0x3d50517d	0.050858963
15	0x3d8e5e1d	0.069515444
16	0xbca89b27	-0.020581795
17	0x3d5e24a0	0.054234147
18	0x3c5cf0ab	0.013485114
19	0xbd32a3ef	-0.04361337
20	0xbcecca82	-0.028905157
21	0xbd8d3a88	-0.068959296
22	0xbd13a09c	-0.03604184
23	0xbd62cc92	-0.055370875
24	0xbcdfcaaf	-0.027318327
25	0x3d37da00	0.044885635
26	0xbd928be5	-0.07155589
27	0xbd0f293e	-0.03495144
28	0xbd314a88	-0.04328397
29	0x3d22fa0c	0.039789245
30	0xbc1a0a22	-0.00940183
31	0xbc1596a9	-0.009130158
32	0x3d2bb386	0.041919254
33	0x3b9722fd	0.004612325
34	0xbd705629	-0.05867592
35	0x3d5c7652	0.053823777
36	0x3d7f47e2	0.062324412
37	0xbd86ff59	-0.065916725
38	0x3cebcd4b	0.028784415
39	0xbd23a5f2	-0.03995318
40	0x3a9d71ff	0.0012012123
41	0x3d606607	0.0547848
42	0xbcb43683	-0.02199865
43	0xbd46f9a2	-0.048577912
44	0xbd90b732	-0.07066192
45	0x3c7d9f59	0.015479886
46	0xbd2da2da	-0.042391635
47	0x3d8bdd3a	0.06829305
48	0xbd012bba	-0.03153584
49	0xbcc42ca2	-0.023947064
50	0xbbf5a5b7	-0.0074965614
51	0x3d28c7ff	0.041206356
52	0x3ba48a24	0.0050213505
53	0x3d5c8a2e	0.053842716
54	0xbc57f006	-0.013179785
55	0xbcf66e15	-0.030081788
56	0xbd240f4c	-0.04005365
57	0x3d8d6996	0.069049045
58	0xbcec6316	-0.028855842
59	0x3b70092a	0.0036626556
60	0xbd689242	-0.056780107
61	0xbbcc4d5b	-0.0062348074
62	0xbcb7c6eb	-0.022433719
63	0xbc9cb871	-0.019130917
64	0xbcf71c82	-0.03016496
65	0xbd346a05	-0.04404642
66	0x3ca4f039	0.020134078
67	0xbd911500	-0.070840836
68	0xbd31f317	-0.04344472
69	0xbc63f40c	-0.013913166
70	0x3c3fb91d	0.011701849
71	0xbcd91f65	-0.026504228
72	0x3c86d7e2	0.016460363
73	0xbd2d2430	-0.04227084
74	0xbda6283e	-0.08113144
75	0x3b2750b0	0.0025530271
76	0xbc0835e1	-0.008313627
77	0xbd167b15	-0.036738474
78	0x3d9bb6b1	0.07603205
79	0x3d0d8b1c	0.034556493
80	0x3c8e41b6	0.017365318
81	0x3d16bc38	0.036800593
82	0x3bcf8382	0.0063328156
83	0xbd5e8f41	-0.054335836
84	0xbdab0824	-0.08351162
85	0xbd9a0c3c	-0.07521865
86	0x3d950584	0.07276443
87	0xbbebc7ea	-0.0071954625
88	0x3d8a363c	0.06748626
89	0x3d907679	0.07053847
90	0xbcc3227c	-0.023820154
91	0x3d98e5b4	0.074656874
92	0xbd8b3c11	-0.06798566
93	0xbc5aece3	-0.013362142
94	0x3c9cfae1	0.019162597
95	0x3d4544c3	0.04816128
96	0xbd2b230d	-0.041781474
97	0x3ce5be60	0.02804488
98	0xbd0a1238	-0.03370878
99	0xbce6c098	-0.028168008
100	0xbd77d3fc	-0.0605049
101	0x3cb9e297	0.022691054
102	0x3c82d143	0.015968924
103	0xbd95c95d	-0.073137976
104	0xbd3c43ac	-0.045962974
105	0xbd8ed4c3	-0.06974175
106	0xbd9aa29b	-0.07550546
107	0x3cf25c45	0.029585013
108	0xbd59d29e	-0.053179376
109	0x3c36dd56	0.011161169
110	0x3c6c4b49	0.014422246
111	0xbd8cc759	-0.0687396
112	0x3cad958b	0.021189472
113	0xbc99bd52	-0.018767033
114	0x3cbdddf5	0.023177126
115	0x3d978aa6	0.07399492
116	0x3ceadc63	0.028669542
117	0xbd6e03c8	-0.058109075
118	0x3c1a0166	0.0093997475
119	0xbacf1d8e	-0.0015801655
120	0x3d6be45f	0.05759084
121	0xbd91a7e8	-0.07112104
122	0xbbc10f66	-0.005891728
123	0xbcd0ca33	-0.025487041
124	0xbd38f3c5	-0.04515435
125	0xbd72195f	-0.059106227
126	0x3d2c6d14	0.042096213
127	0x3d799fa8	0.060943276
128	0x3b4044d6	0.0029337904
129	0x3cb2d542	0.021830205
130	0xbc60b4a4	-0.013714943
131	0x3d6b456c	0.057439253
132	0x3d030334	0.031985477
133	0xbc2688f1	-0.010164485
134	0xbd27613f	-0.040864225
135	0x3c543b5b	0.012953605
136	0xbdb6ab05	-0.08919338
137	0xbd82183a	-0.06352277
138	0x3d2a2320	0.041537404
139	0x3d4ce4be	0.050022833
140	0x3a99aa92	0.0011723808
141	0xbd8b9189	-0.06814868
142	0xbb424f5f	-0.002964936
143	0xbc94d54e	-0.018168118
144	0xbcc064ca	-0.02348556
145	0x3d5ee4fe	0.054417603
146	0x3bfeb2c8	0.007772777
147	0x3b68983b	0.0035491127
148	0xbd06b262	-0.032884963
149	0xbd820fcc	-0.06350669
150	0x3cf83bd8	0.030301973
151	0x3d8550e5	0.0650957
152	0x3cd9c9fa	0.026585568
153	0xbd26de57	-0.040739384
154	0xbc9c85bf	-0.019106744
155	0x3db185f7	0.0866813
156	0x3c8a68dd	0.016895706
157	0x3d83caf8	0.064351976
158	0xbd7fa48e	-0.06241279
159	0xbd24929f	-0.04017889
160	0x3d9e59fe	0.077320084
161	0xbc24a954	-0.010050137
162	0x3c90a91c	0.017658763
163	0x3c75c1f8	0.014999859
164	0xbd4e57d3	-0.050376724
165	0xbc3d10e4	-0.011539672
166	0x3cb94f5e	0.022620853
167	0xbd17af5c	-0.03703247
168	0xba8619f3	-0.0010231122
169	0x3d96f492	0.07370867
170	0xbd45a1fd	-0.048250187
171	0xbd6a1e47	-0.05715778
172	0xbdaa2619	-0.08308048
173	0xbd592cb3	-0.053021144
174	0xbaa953e8	-0.0012918683
175	0xbc43819a	-0.011932755
176	0xbd1319a9	-0.035913143
177	0xbcd97298	-0.0265439
178	0xbd836635	-0.06415979
179	0xbd9f40fb	-0.07776066
180	0x3c048cfb	0.008090253
181	0x3d7e76da	0.062125064
182	0xbd899fc0	-0.06719923
183	0x3b69936a	0.0035640844
184	0x3d4268fe	0.04746341
185	0x3d4cd18f	0.05000454
186	0x3cc0d161	0.02353734
187	0xbd673f34	-0.05645676
188	0xbd2ea41d	-0.04263698
189	0x3bffe730	0.007809542
190	0xbd2dfc3b	-0.042476874
191	0xbd43e322	-0.047824033
192	0x3c275177	0.010212294
193	0xbd4ca8f3	-0.04996581
194	0x3d8b73cb	0.06809195
195	0x3d83ff1d	0.06445143
196	0xbd7ac840	-0.06122613
197	0xbd711277	-0.0588555
198	0xbd7409e0	-0.05957973
199	0x39472dd0	0.00018995185
200	0x3d81ea30	0.06343496
201	0x3c75e11c	0.015007284
202	0x3d3efd3d	0.046628226
203	0x3d0517e1	0.032493476
204	0x3d6e17d7	0.058128204
205	0xbd2aa579	-0.041661713
206	0x3cbf07d7	0.023319168
207	0xbcd25316	-0.025674384
208	0x3c1804d4	0.009278495
209	0x3ca8c6bf	0.020602582
210	0x3d78281d	0.06058513
211	0xbd7114ff	-0.058857914
212	0x3cddaf83	0.02706123
213	0xbc3e2f25	-0.01160792
214	0xbd6c4501	-0.057682995
215	0xbc2d5cb2	-0.010581182
216	0xbd984f25	-0.074369706
217	0xbd486b24	-0.048930302
218	0x3d856352	0.065130845
219	0x3d7a92b4	0.061175063
220	0xbcd1e7e2	-0.025623266
221	0xbd8b2838	-0.067947805
222	0x3d0e8da4	0.034803048
223	0xbcc0e0d5	-0.023544708
224	0xbc617422	-0.013760598
225	0xbd515e1a	-0.051115133
226	0xbb2782c3	-0.0025560118
227	0x3d6b14e5	0.057392973
228	0x3d9c00d8	0.076173484
229	0x3c599f63	0.01328263
230	0x3cdba2c7	0.026811017
231	0x3d2ddc5d	0.042446483
232	0x3da60626	0.081066415
233	0x3d2e4f65	0.042556185
234	0xbd34e67a	-0.044165112
235	0xbcc3e15a	-0.023911167
236	0x3cd9512d	0.026527965
237	0xbdd7f307	-0.10544401
238	0xbbcdf2a8	-0.0062850304
239	0xbcdbed23	-0.026846474
240	0xbcbfa1e9	-0.023392634
241	0xbd8c1cce	-0.068414316
242	0x39f38271	0.00046445758
243	0xbd27f9e1	-0.041009787
244	0x3d755f4f	0.059905346
245	0xbda2318d	-0.07919607
246	0xbd90a810	-0.070633054
247	0xbda85389	-0.08219058
248	0xbd0bfc5c	-0.034176216
249	0xbc6b1a3b	-0.014349516
250	0x3ae851d4	0.0017724582
251	0xbd856a9e	-0.06514476
252	0xbd73ffbf	-0.05957007
253	0xbdc52488	-0.096261084
254	0xbc1818bd	-0.009283242
255	0x3d1ffc34	0.03905888

weight f4 [32]
0	0x3f8064dc	1.003078
1	0x3f7f5d28	0.9975152
2	0x3f8071b9	1.0034705
3	0x3f7cdba2	0.98772633
4	0x3f8149c6	1.0100639
5	0x3f7fae47	0.998753
6	0x3f80dda6	1.0067642
7	0x3f7e6db1	0.99386126
8	0x3f81339b	1.0093874
9	0x3f80b095	1.0053889
10	0x3f7f0d5d	0.99629766
11	0x3f80f946	1.0076072
12	0x3f800016	1.0000026
13	0x3f7c3647	0.9852032
14	0x3f818db2	1.0121367
15	0x3f7e6cc1	0.99384695
16	0x3f7df5d7	0.99203247
17	0x3f7d4d2f	0.989459
18	0x3f7f94ea	0.998366
19	0x3f841807	1.0319833
20	0x3f7e4a08	0.9933171
21	0x3f7eaaaa	0.9947916
22	0x3f7d707c	0.9899976
23	0x3f7b0be1	0.98065
24	0x3f81fb5b	1.0154833
25	0x3f818a75	1.0120379
26	0x3f8071d1	1.0034734
27	0x3f7f593e	0.9974555
28	0x3f7e8aa8	0.9943032
29	0x3f7c6832	0.9859649
30	0x3f7e2dd3	0.9928867
31	0x3f7d29a7	0.9889168
